…
for medium numbers of groups in the differentiable 7Table 4. The effects of search space and group number in differ- entiable search method on the ﬁnal performance. Search space Group number mIoU(%) mAcc(%) Baseline: {S} – 51.7 61.8 {S, C1, C8} 8 53.6 63.9 {S, C1, C4, C6, C7} 8 54.2 64.9 {S, C1, C2, C3, 2 52.9 63.8 4 53.4 64.6 C4, C5, C6, C7, C8} 8 54.4 65.2 16 54.0 64.5 Table 5. The effects of relaxation and derivation strategy in differ- entiable search method on the ﬁnal performance. ∗ indicates the architecture parameters are frozen. Relaxation Derivation mIoU(%) mAcc(%) Random D(32,32) →D(1,1) 51.5 61.2 Softmax S(32,32) →S(1,1) →D(1,1) 51.8 62.0 S∗(32,32) →S(1,1) →D(1,1) 52.3 63.2 S(1,1) →D(32,32) →D(1,1) 53.5 64.5 Sigmoid S(32,32) →S(1,1) →D(1,1) 52.6 64.0 S∗(32,32) →S(1,1) →D(1,1) 53.7 64.7 S(1,1) →D(32,32) →D(1,1) 54.4 65.2 search. Increasing the numbers causes the optimization dif- ﬁculties due to the large search space, and decreasing the numbers excludes the promising solution due to the chan- nel correlation. Performance w.r.t. searching strategy: We further in- vestigate the effects of searching strategy in Table 5, includ- ing relaxation method for the binary selector in (5) and strat- egy for deriving 
…
